2022-01-22 1858
Model: "sequential"
_________________________________________________________________
Layer (type)                 Output Shape              Param #   
=================================================================
conv2d (Conv2D)              (None, 24, 24, 6)         156       
_________________________________________________________________
max_pooling2d (MaxPooling2D) (None, 12, 12, 6)         0         
_________________________________________________________________
activation (Activation)      (None, 12, 12, 6)         0         
_________________________________________________________________
conv2d_1 (Conv2D)            (None, 8, 8, 8)           1208      
_________________________________________________________________
max_pooling2d_1 (MaxPooling2 (None, 4, 4, 8)           0         
_________________________________________________________________
activation_1 (Activation)    (None, 4, 4, 8)           0         
_________________________________________________________________
flatten (Flatten)            (None, 128)               0         
_________________________________________________________________
dense (Dense)                (None, 120)               15480     
_________________________________________________________________
dense_1 (Dense)              (None, 84)                10164     
_________________________________________________________________
dense_2 (Dense)              (None, 10)                850       
=================================================================
Total params: 27,858
Trainable params: 27,858
Non-trainable params: 0
_________________________________________________________________
Epoch 1/40
938/938 [==============================] - 25s 21ms/step - loss: 0.0901 - accuracy: 0.1036 - val_loss: 0.0900 - val_accuracy: 0.1039
Epoch 2/40
938/938 [==============================] - 19s 20ms/step - loss: 0.0899 - accuracy: 0.1103 - val_loss: 0.0898 - val_accuracy: 0.1210
…
